CubeNet/Para.pt (torch, 886845 bytes, 56 tensors)

inc.double_conv.0.weight f4 [8, 3, 1, 1, 7]
00000000: 39e7 1bbc 14ba 513c 8b28 4f3b 8a15 453c
00000010: c937 983b eb74 493a 168f de3c d7df 4a3c
00000020: 1d5a fc3c 6da3 b63c 66af 113d 3236 133d
00000030: 52dc 023d 50e4 3d3c 3d6a d43d 35d3 ddbc
00000040: c53e c83d afaf 1abe 6f89 d5be a090 d1be
00000050: 97bb a6be a2c5 8e3d 8419 8b3d 6efd 863d
00000060: b4d0 603d 5c13 393d 3cde b83d 871c c63c
00000070: 409d b83b 191d 29bb 5dad 12bd 129c 05bd
00000080: f749 babc eb8a 0a3a 2c78 a13c 8fd4 7c3e
00000090: dde3 b73d 21dc ae3e 347f ebbd 505c 7e3e
000000a0: 3059 ee3e 965a 96be ee52 94bc 5b60 4ebe
000000b0: 58c2 bbbd fa22 95bd 6fd2 23bc 640f 84bd
000000c0: 3d59 72be 9223 d4bd cfbe 5fbe fdfc 9bbe
000000d0: db1d 89be 5c7c bfbe 35fc cfbc 9cb2 ab3e
000000e0: 95b1 66bb 8448 373d cdc8 3d3d 67a0 cdbc
000000f0: 9570 64bb 158f 153c c162 23bc 107a a2bc
00000100: 12a9 b13c 2f0b 963d 3785 2d3d 057f 38bd
00000110: 66d5 f4bc bfc1 fd3c 82b5 a6bd 6249 dbbd
00000120: 7af6 b3bd 25ee 5cbd 8bc8 23bd bd48 cfbd
00000130: 226d abbd 3e58 05be 37a9 b73e a189 b3be
00000140: 287f 99be 3d8e 983e 13c9 d3bd 6a81 8c3d
00000150: ec22 56bd b9a3 c2bd 767d 89bc be18 b1bd
00000160: 4eab 9cbd 1771 f2bd 3a33 0abd bc4e 763d
00000170: 1e5d 8f3d 2a25 4a3d 53c7 b43d 3186 7c3d
00000180: be37 773d ea72 05bd fbbd a7bd 27fa b0be
00000190: c64e 9f3d 6d1a 233f 3195 c13e 7500 09be
000001a0: d912 423d 093f 8d3d fd26 833e 43a8 9cbe
000001b0: 8480 273e e1e6 1b3f c836 90bd 39f5 bf3c
000001c0: 3761 68bb 40cd 423e c899 f53d 2c01 b73d
000001d0: 9dd3 6c3e 1748 123e bba1 da3d db0e 92bc
000001e0: c6a3 46bc f55f 463c f6fe abbc aa83 013d
000001f0: 289e dfbc 9aa9 9e3c 2c92 d1bc 2a93 f2bd
00000200: fe0e 4a3e 0df4 ce3e be96 7b3e 5bfc 083e
00000210: cd17 ef3c 84db 70be 0986 623e d2b8 6e3e
00000220: 3715 84be 2eb7 adbe 936b 9dbe 8866 bbbb
00000230: 74c8 89bd c23e 853d 3382 50bd 9bb9 113d
00000240: a256 28bc b888 383c b824 e23c 22f5 be3d
00000250: 1a80 adbd 3599 5dbe 1b18 ecbe bf05 ccbe
00000260: 8fea 84bd 825b 35bc 7396 ff3d 98d9 833e
00000270: 999c a23e da8f 0dbe 69dc b5bd b8d3 2d3e
00000280: bb78 86bd a6f6 20bd 6595 993c c3b7 d6bc
00000290: c03c fbbc b0b1 68bb 2d91 c2bc 9bd8 483c
-0.009515577 0.012800712 0.003160986 0.012029061 0.004645322 0.00076849636 0.027167838 0.012382469
0.030804688 0.022294724 0.035567664 0.035940357 0.031948395 0.0115900785 0.10371826 -0.02707825
0.09777597 -0.1510608 -0.41706416 -0.40930653 -0.32564995 0.06971289 0.06791976 0.065913066
0.054886535 0.04518448 0.09026763 0.024183525 0.00563398 -0.0025804697 -0.035809863 -0.032619543
-0.022740347 0.00052849826 0.019710623 0.2469046 0.08979008 0.3415232 -0.114988714 0.24839902
0.4655242 -0.29365987 -0.01810595 -0.20153944 -0.091679275 -0.07282062 -0.009998902 -0.06448248
-0.23666854 -0.10358347 -0.21850131 -0.30466452 -0.2678059 -0.37399566 -0.025388816 0.33534706
-0.0035201062 0.04474689 0.046334077 -0.0251009 -0.0034857143 0.009128352 -0.009972275 -0.019833595
0.021687064 0.07326352 0.04236337 -0.04504301 -0.029886913 0.030976174 -0.081400886 -0.10707356
-0.08787246 -0.05393805 -0.039986175 -0.101212956 -0.08370425 -0.13021943 0.35871288 -0.3506594
-0.29979825 0.2979602 -0.10341086 0.06860621 -0.052279398 -0.09503884 -0.016783457 -0.08647297
-0.07649861 -0.118379764 -0.03374026 0.06013368 0.070001826 0.04935185 0.088270806 0.061651412
0.060355894 -0.032580294 -0.08190533 -0.3456585 0.07778697 0.637122 0.37809137 -0.1337908
0.047381256 0.068967886 0.25615683 -0.30597124 0.16357619 0.6089917 -0.07041699 0.023432361
-0.0035458335 0.19023609 0.11992222 0.089357704 0.23127599 0.14285313 0.10675379 -0.01782935
-0.012124008 0.012107839 -0.020995598 0.031619705 -0.027297094 0.019367982 -0.025582395 -0.118444756
0.19732282 0.4042057 0.24569222 0.13377516 0.029186154 -0.23521239 0.22121443 0.23312691
-0.25797436 -0.33928818 -0.30746135 -0.00571901 -0.067276865 0.06506111 -0.050905418 0.035577398
-0.010274561 0.011263065 0.0276054 0.09324099 -0.08471699 -0.21640475 -0.4611214 -0.39848134
-0.06490051 -0.01106918 0.12479868 0.25751948 0.317601 -0.13824406 -0.088799305 0.16975296
-0.06565996 -0.039297722 0.018747995 -0.026210671 -0.030668616 -0.00355063 -0.023750866 0.012258674

inc.double_conv.1.gamma f4 [1, 8, 1, 1, 1]
00000000: 7250 833f 8c46 6e3f cca3 633f d7b6 833f
00000010: 01a8 893f cd8a 813f 43c7 773f 82a2 823f
1.0258925 0.93076396 0.8892181 1.0290173 1.0754396 1.0120484 0.96788424 1.0205843

inc.double_conv.1.beta f4 [1, 8, 1, 1, 1]
00000000: ce15 b9ba 7ece d2ba 6578 caba ccac 3abb
00000010: 0aac 9aba 79f1 24bb ad9c 1fbb 875a ef3c
-0.0014120878 -0.0016083268 -0.0015447257 -0.0028484343 -0.0011800539 -0.0025168343 -0.002435486 0.029217971

inc.double_conv.3.weight f4 [8, 8, 1, 1, 7]
00000000: 45f9 973d 78fe e53d e66a 513d a8fd e8bc
00000010: a717 aa3c 1b31 433d cd06 b93b 95a3 14be
00000020: 4bf0 183d 5e1b 003d bb8e ef3d f87f aa3d
00000030: f9fd 553e cda4 debd 2a4a 61be e15a abbd
00000040: 04d8 88bd b0ed cabb f82d 013e c280 01bd
00000050: ff06 95bd 37e0 cebc 89d9 49bb 6010 68bd
00000060: 026c b23c 3217 033e 793a 083e ed7a 723e
00000070: 2e17 803d 2daf d53d 068c 863d b828 2a3d
00000080: 4384 c93d 3adc 893d 1014 f23d 50da 14be
00000090: 049f 74be 1646 94be 968d 79be 18c7 55bd
000000a0: 363b 683d 199a e43d 8ead 90be 683a a5be
000000b0: 50fa 1ebe 820f 8bbe 3f71 933c 9173 37bc
000000c0: 43e0 d9bc 6b37 97bd 311a 7dbe 0e19 89bd
000000d0: c6d9 ddbd b4f5 133d 4ab8 9d3d 29e3 a33d
000000e0: 0410 8bbe 5c95 38be 687b 273d 0b86 3c3e
000000f0: 20fe 863c d1d4 ccbc b40e 3a3d 4d26 5abe
00000100: 4086 57be eb23 0a3e c1d5 ca3d 15ce 053e
00000110: da58 75bd 2dac 763d cee7 be3c 57ac 40be
00000120: a2f8 da3c 5e47 8cbc a82e 5abc 30e8 26bd
00000130: 299e bdbd 3e7a dbbe 5967 83be ab30 e5bd
00000140: 8a62 1b3d 2998 a83d 5293 073e 36e3 7a3d
00000150: 3168 03bf c22e 5cbe bdda 52bd ce4b b1bd
00000160: 9dbe 8d3d 48fe c03d 2e1d 123d a293 29be
00000170: 3cbc 87bc 98e8 dbbd 4fb3 eabd 7dd1 84bc
00000180: a108 0abe 8ca0 843c 147c 163c 2cd7 12be
00000190: 471a ffbd 7ce4 1f3c 4012 3dbc a1b3 f3bd
000001a0: 3059 60bd 2ddf bcbd de3c f3bd 79fe 1a3d
000001b0: 087f 51bd 0c54 d6bd 1d1c 87bd 1db6 bbbd
000001c0: 7eae 63be e365 8a3d c225 98be 8b5e 30be
000001d0: 0291 b0be 2668 e03d ead0 27bd 2c3e 113e
000001e0: f442 14be fea4 62bd 23ea bdbe aecb 3ebe
000001f0: f1fa 44bc bb7a 533d a28c 06be d04f cb3d
00000200: beb4 a6bc 2252 9fbd 4441 41be ab5c 9abd
00000210: 7210 a73d e164 903c 15b5 823c 2fb9 bebd
00000220: 126a 5fbd 5b6a 8cbd 69e3 7abd 7946 a3bd
00000230: 7fc2 0f3e a3a7 ebbd 532c 5d3c 3666 12be
00000240: e3f2 e3bd 7c43 23be 604d 24be a70d 8bbd
00000250: c563 673d 0758 e43d 93ec 63be 9d6c 5b3c
00000260: f00e 8bbe 20ac d33b 92d6 09be d288 63bc
00000270: 6745 f5bc 70a4 13bb 2e99 74bd 0d19 5e39
00000280: fb36 97bd c6c6 773c c535 46bd f22c 11be
00000290: 729f 58bd 6b11 5cbd c28b 07be 8b57 d63d
000002a0: 1841 b73d 90ae 32be 29a8 b0be f52d 0ebd
000002b0: c3ae 323e d4e1 e53b 6d1d eabc e672 86be
000002c0: 5cb5 b0bd cb95 83bd 2ef4 133e 1495 b9bc
000002d0: 480e 973c a3da 85bc 5a4a cfbd 6d51 1d3e
000002e0: 5198 28be adab adbd 5be6 0ebe bb41 a03e
000002f0: cacc 50be b739 2bbe 2492 113e fbbc 613e
00000300: 96e2 68be 4615 5e3e e8d7 74bd 4557 cf3c
00000310: 71cf 463d 5a46 96be 4264 3d3e a7ee 6f3d
00000320: bd8e cd3c 5cbc ee3c 86a3 5cbe d50b ccbd
00000330: 0b12 8e3d a94a 8fbb e18b a0bc 453d e53d
00000340: 822d c9bd 0234 82bc 6ceb 6d3d 34f2 09be
00000350: 9fd7 1e3d 1a17 debd 9d2d 96bd c3c4 183e
00000360: 9ecf fbbd 28e0 cfbd b906 3b3e fdf9 90bd
00000370: f187 54be 9e63 663e fe6d 2dbe ee17 713d
00000380: 3a94 8a3e f6e6 93bd 713f 113e 357c 8a3d
00000390: 9ce8 063e cdcd ca3d bb49 a23d 9f2b 9cbc
000003a0: 9fa8 893e 5987 80bd 9153 7d3e 10c5 8ebd
000003b0: 0ff6 603e d231 193e 09b6 893e 9888 eb3d
000003c0: 09cc abbd d93a b03d 2a64 3d3e 6519 77bc
000003d0: ab59 1fbc 04b8 3f3e bb1e ca3d 20a6 b6bd
000003e0: 57d5 57bd b787 2a3e 5325 853d 6d6f b23e
000003f0: 5392 773c ef0e 673e 1a8f 003e c3b2 d73d
0.07420591 0.11230177 0.051127337 -0.028441265 0.020763231 0.047654252 0.0056465627 -0.14515527
0.037338536 0.0312761 0.116971456 0.08325189 0.20897664 -0.10871277 -0.22000948 -0.08366943
-0.06681827 -0.0061928853 0.12615192 -0.031616934 -0.07276725 -0.025253398 -0.0030799827 -0.05665624
0.021780018 0.12801817 0.13303556 0.23679705 0.06254421 0.10433803 0.06569676 0.04154274
0.0983968 0.06731458 0.11820233 -0.14536405 -0.23888785 -0.2895972 -0.24370417 -0.052191824
0.056697093 0.11162204 -0.28257412 -0.32271123 -0.15525174 -0.2716027 0.017998336 -0.011196987
-0.026596194 -0.07383617 -0.24717022 -0.06694232 -0.108325526 0.036122993 0.07701166 0.08002312
-0.27160656 -0.18025726 0.040889174 0.18410508 0.016478598 -0.025003823 0.04542418 -0.21303673
-0.21047306 0.13490264 0.099040516 0.13066895 -0.05989919 0.060222793 0.023303892 -0.18815742
0.026729885 -0.017123874 -0.013316788 -0.040748775 -0.09258682 -0.428667 -0.25664786 -0.11190923
0.03793577 0.08232147 0.13239792 0.06125184 -0.5133086 -0.21502212 -0.051478136 -0.08657037
0.06921122 0.094235 0.03567236 -0.16560224 -0.01656925 -0.10737723 -0.11459982 -0.016213173
-0.13479854 0.016189836 0.009184856 -0.14339894 -0.12456184 0.009759065 -0.011539996 -0.11899496
-0.054772556 -0.09222255 -0.11876844 0.03784034 -0.051146537 -0.104652494 -0.06597159 -0.09165595
-0.22234532 0.067577146 -0.29716307 -0.17223565 -0.34485632 0.10957365 -0.04097072 0.14183873
-0.14478666 -0.05533313 -0.37092695 -0.18632385 -0.01202272 0.051630717 -0.13139585 0.099273324
-0.020349856 -0.077793375 -0.18872553 -0.07537206 0.081574336 0.017626228 0.015955487 -0.09312665
-0.054544516 -0.06856223 -0.06125203 -0.07972426 0.14039038 -0.115065835 0.013499337 -0.14296803
-0.11130311 -0.15943712 -0.16045141 -0.06789713 0.056491632 0.111496024 -0.22258215 0.013392595
-0.27159834 0.006459728 -0.13460758 -0.013887601 -0.02994032 -0.0022528432 -0.059716396 0.00021180902
-0.073835336 0.015123075 -0.048391122 -0.14177302 -0.052886434 -0.05372755 -0.13236907 0.10465916
0.089479625 -0.17449403 -0.34503296 -0.034711797 0.17449479 0.007015446 -0.028578484 -0.26259536
-0.086283416 -0.06425055 0.14448616 -0.022654094 0.018439427 -0.016339606 -0.10121603 0.15363093
-0.16464354 -0.0848001 -0.13955061 0.31300148 -0.20390621 -0.16721235 0.14215904 0.22044747
-0.22742686 0.21687803 -0.059776217 0.025310168 0.048537675 -0.2935055 0.18495277 0.058577206
0.025092477 0.029142551 -0.21546754 -0.09963194 0.06937035 -0.004372914 -0.01959795 0.11193327
-0.09823133 -0.01589394 0.058085844 -0.134713 0.03877985 -0.1084425 -0.07332919 0.14918809
-0.12295459 -0.10150176 0.18264283 -0.070789315 -0.20754983 0.22498938 -0.1693649 0.05886071
0.27066213 -0.07221787 0.14184357 0.06761972 0.13174671 0.09902535 0.07924219 -0.019063769
0.2688646 -0.062758155 0.2473891 -0.069711804 0.21968864 0.14960411 0.26896694 0.115006626
-0.08388526 0.08604974 0.18495241 -0.015081738 -0.009725968 0.1872254 0.098691426 -0.089184046
-0.05269369 0.16653334 0.0650126 0.34850636 0.01511057 0.2256429 0.12554589 0.10532143

inc.double_conv.4.gamma f4 [1, 8, 1, 1, 1]
00000000: b81b c53e 5ff1 5b3f c0f2 803f 39be 263f
00000010: 12fa 133f e6cd fd3e 80ac 643f 57a9 f83e
0.3849771 0.8591518 1.0074081 0.65134007 0.5780345 0.4957115 0.89325714 0.48566696

inc.double_conv.4.beta f4 [1, 8, 1, 1, 1]
00000000: f5b1 f6bc ce8b 713d b5b2 a43d 35d4 ddbc
00000010: 7c10 ebbc f82e 69bd b3c7 303e 02d5 10bb
-0.030114153 0.05897122 0.08041898 -0.027078727 -0.028694384 -0.05692956 0.17263679 -0.0022099619

down1.maxpool_conv.0.weight f4 [8, 8, 1, 1, 7]
00000000: 7d93 69bd 7444 1ebd 1215 bc3a 3d99 06be
00000010: eb29 c7bd d0e1 82bd 73b3 22be d6b3 8f3e
00000020: 0de0 933e 65e7 8cbd 1d02 5cbd f63c b9bc
00000030: 7c62 6abe 2e95 72be c966 e53d 3810 6cbe
00000040: 3fcd bdbe 2700 ddbd 6490 dbb6 a13d 6fbe
00000050: 8740 b1be 6755 34bd 80ba 35bd 935c 44bd
00000060: 6d24 1bbe ae63 bdbd 094d f5bc a833 edbd
00000070: 6686 5e3d 5ce0 893c dbe0 d6bd 6170 cb3d
00000080: 057f dabd 2513 d13d 36f4 773e 2053 75bc
00000090: db96 90bc 7a6f f3ba b32d d03d 1ad2 e8bd
000000a0: 3ba9 e13d d774 da3d 79c0 2e3e ab8b b0bd
000000b0: bd6b 1c3d 5021 3ebe ab22 64bd 8085 bbbe
000000c0: 7b7a 99be 193c 8f3c 77b2 ab3d f743 273e
000000d0: c7e2 55bd c5f2 0c3d 842b 69bd ce62 bb3c
000000e0: 9e18 743d fdca bebb 9a04 4d3c 6897 c2bc
000000f0: f8a6 663c 8112 403d 6012 1a3c 6a23 383e
00000100: 2ca3 1d3e 583b 2c3e b189 a13e 839b 573e
00000110: b8d9 a53d 1461 493e 04f4 c5bc 37f4 473d
00000120: 5a16 233c 3390 aebd f1a3 1b3e e9d5 a5bd
00000130: 0df6 46be 9a51 ab3b b662 8bbc f6ff bbbc
00000140: 8ed9 d1bc dbfc f1bc 3187 7d3b 94fc f0bc
00000150: 049e 3bbd 1f07 52be 62e1 14be b3d7 39be
00000160: 3151 b3bc 2903 983d 985c 1f3e d887 e8bc
00000170: 4aee 1abe f8ae e03c 4eca a0bc c097 ab3d
00000180: 4b9b 0b3e ddbe 983d 7a98 26be 9029 473d
00000190: b6eb 9d3c a8dc 05be 108d 03be 0200 afbe
000001a0: c861 8dbe fe00 3abe 7b22 a4bd eca1 48be
000001b0: 6d2c 98bd eab7 723d 3d39 a53e 5ec1 8b3e
000001c0: 9ca7 293d 77ba 81bc abdb f2bc 498a ea3c
000001d0: 656e 0f3b 8140 803d a134 1e3d 5c86 c03e
000001e0: 6271 ca3e 1b65 cf3e 9b65 c33e fd05 033e
000001f0: e97e f13c fcfb 33ba e6bf b2bd 61cc 69bb
00000200: 8a6e c2be 97ad edbe d375 4cbe a17d 81be
00000210: 0b83 33be 96d2 6e3d de0c 5a3d d158 3c3d
00000220: a148 263d b662 8a39 590b 04bc c238 f33b
00000230: 2178 b53d ede0 e1bd 5144 c03a 63d6 a7bd
00000240: 4675 e5ba e0f6 67bd 8eb2 963d c2c2 91bc
00000250: d99b 90bc 3c6f 573c b60d 453d 8657 313d
00000260: 71e9 5bbd 9b15 40bc 25d3 0bbe 1ca1 09bd
00000270: dc06 b7bd 06a1 ac3c bb37 e6bc de26 24bc
00000280: e378 993e cc5d 923c ef97 27bd c664 a73d
00000290: 0c26 a9bd 40d9 f43d 89aa 5d3c e091 81bd
000002a0: b3fa a03d bee7 883e 40b6 9d3d b97e 76be
000002b0: be4c 39be 029f a73d 731a 61be 5912 dcbd
000002c0: 4c22 2e3e efac b8bd 6492 2c3c f3dd 97bb
000002d0: c875 08be c739 6f3e 43b7 323e f75b 353d
000002e0: fa26 30bd dc16 f03d 061d dfbd be5c 73be
000002f0: 675a 26be c28a ef3d 41cf 643e 387b 503e
00000300: ddf8 bf3d 7401 b33d 632a 2e3e dc27 d93d
00000310: eba8 77be 80e0 81be dc4f 61bd e5eb 58be
00000320: 4283 af3d 24c5 02bc 9efb 40be c05b e1bd
00000330: c9bf 45be 3ee1 833c 0280 01bd 4e65 01be
00000340: c351 2b3e 8274 63be ee60 87bd e6e1 70bc
00000350: f1e3 4b3d d828 3b3d 1499 443e 98e1 81bc
00000360: 7ab0 0f3e 2220 e23c 315e 483e 1fdb 683e
00000370: d6f4 98bc 6a50 663d 238a ccbd deea 9b3c
00000380: 7f33 333c 7e21 1dbe 6953 67be c826 c2bd
00000390: 7553 0cbe a2e0 393e d132 e63d d144 983d
000003a0: 0510 27be cec0 1b3d 417a 223d 00be 923c
000003b0: cf9d e53d d743 41bc 4a9c 073d 0b7e 253d
000003c0: ed21 42bd 9daf ef3d 9885 243e 1838 653e
000003d0: 4fa6 513d 844f 0d3e 6629 073e d0cb 5c3d
000003e0: 0d3d 5d3e 9cd9 073e 1e92 903d ca65 2f3e
000003f0: 14a6 47be 4e14 8cbe f0f9 e4bd 50b0 60be
-0.05702542 -0.0386395 0.0014349541 -0.13144393 -0.09724792 -0.063907266 -0.15888767 0.2806689
0.28881875 -0.068800725 -0.053712953 -0.022612076 -0.22889131 -0.2368972 0.11201245 -0.23053062
-0.37070653 -0.10791045 -6.543518e-06 -0.23363353 -0.34619543 -0.04402676 -0.044367313 -0.04793985
-0.15150614 -0.09247528 -0.02994396 -0.11582118 0.05432739 0.016830616 -0.104921065 0.09933544
-0.10668758 0.1020873 0.24214253 -0.014973432 -0.017650058 -0.0018572651 0.101649664 -0.11368199
0.11018606 0.10666817 0.1706561 -0.086203896 0.038188685 -0.18567395 -0.055697124 -0.3662529
-0.29976258 0.017484711 0.08383649 0.1633452 -0.052218225 0.03441121 -0.056926265 0.022874262
0.05959379 -0.005822538 0.012513304 -0.023753837 0.014077894 0.046892647 0.009403795 0.1798226
0.15394276 0.16819513 0.31550363 0.21055417 0.08098167 0.19665939 -0.024164207 0.048816886
0.0099540595 -0.085235976 0.15199257 -0.08097441 -0.19429798 0.0052282335 -0.017014842 -0.0229492
-0.025616433 -0.029539516 0.0038685317 -0.029417314 -0.045804992 -0.20510529 -0.14539102 -0.18148689
-0.021889301 0.07422478 0.15562665 -0.028385088 -0.15129963 0.027427182 -0.019627716 0.083785534
0.13633458 0.07458279 -0.16269103 0.04862362 0.019277435 -0.13072455 -0.1284678 -0.34179693
-0.27613664 -0.18164441 -0.08014389 -0.19593018 -0.074303485 0.059257425 0.32270232 0.27295965
0.04141961 -0.015835984 -0.029645761 0.028630393 0.0021885869 0.06262303 0.03862441 0.37602508
0.3953963 0.40506825 0.38163456 0.12795253 0.02947946 -0.00068658567 -0.08728008 -0.0035674798
-0.3797496 -0.464215 -0.19966821 -0.2529116 -0.17530458 0.0583063 0.053234927 0.04598314
0.040596608 0.00026394957 -0.008059346 0.0074225375 0.088608034 -0.11029229 0.0014668797 -0.08195188
-0.0017506264 -0.056631923 0.07358275 -0.017793063 -0.017652439 0.013149079 0.04810878 0.04329636
-0.053689424 -0.011723901 -0.13654764 -0.03360091 -0.08936855 0.021072876 -0.028102746 -0.010019032
0.29975042 0.017866991 -0.04091638 0.08173518 -0.0825921 0.119555 0.013529428 -0.063266516
0.07860317 0.26739305 0.07700777 -0.24071778 -0.18095681 0.08184625 -0.21982746 -0.10745687
0.1700527 -0.090173595 0.010532949 -0.0046346127 -0.1332618 0.23361884 0.17452721 0.044277158
-0.04300592 0.1172311 -0.10894208 -0.23765847 -0.16245423 0.11696388 0.22344686 0.20359504
0.09373639 0.087405115 0.17008357 0.10603306 -0.24185531 -0.25366592 -0.0550078 -0.21183737
0.08569957 -0.007981572 -0.18845984 -0.11003828 -0.19311441 0.016098615 -0.03161622 -0.12636301
0.16730408 -0.22212413 -0.06610285 -0.014702296 0.04977793 0.04569325 0.1919902 -0.015854642
0.14032164 0.027603213 0.19567181 0.22739838 -0.018671434 0.056229033 -0.09987285 0.019032892
0.010937571 -0.15344808 -0.22590412 -0.09480053 -0.13703711 0.18152097 0.11240161 0.07435001
-0.16314705 0.03802567 0.03966737 0.017912865 0.1121174 -0.011795959 0.033108033 0.040403407
-0.047395635 0.117034175 0.16066587 0.2238468 0.051183995 0.13799864 0.13199386 0.05390531
0.2160532 0.13266605 0.0705912 0.17128673 -0.19496948 -0.2735924 -0.11180484 -0.21942258

down1.maxpool_conv.1.gamma f4 [1, 8, 1, 1, 1]
00000000: 844e 5c3f a379 913f 1992 6d3f ac91 823f
00000010: fafb af3f 7e34 5b3f 6781 4a3f e5db 463f
0.86057305 1.1365246 0.9280105 1.0200706 1.3748772 0.8562697 0.791037 0.7767928

down1.maxpool_conv.1.beta f4 [1, 8, 1, 1, 1]
00000000: 3ea1 9e3c 1b38 b3bd 677e 163e 12b0 c4bd
00000010: cf44 393f db2a f43d 68fc a13d 2d83 4e3e
0.019363996 -0.08750936 0.14696656 -0.09603895 0.7237062 0.119222365 0.07909471 0.20167227

down1.maxpool_conv.3.double_conv.0.weight f4 [11, 8, 3, 3, 7]
00000000: f55f 013d 396d 07bc 4b57 25bc ea4d 423d
00000010: b68a 0fbd 43ec 0e3d ce5d 26bd 124a e13b
00000020: 1944 ffbc 1187 573d 9833 3f3d 3a34 22bd
00000030: cddd 603c 082e 213c b310 2a3c 916d 8d3c
00000040: 0a64 27bd 4b6a 85bd accb cdbc d037 323c
00000050: 0a4a e5bb 2233 ad3b b144 bfb8 1d19 b83c
00000060: d9b1 f8bc 9e64 c8bc 9da1 8abc bfbc 813c
00000070: 6387 e2bc 54b8 f03c 6c5a 6f3b 8eea b43d
00000080: 8e5c 61bd 8395 3ebd 9323 f1bc 625e a43d
00000090: 4699 b83d 772b bcbc d736 a93c c266 ec3c
000000a0: d5b3 9ebc 0621 f03c a06a d9bc c4d5 a4bc
000000b0: 5394 803d 9763 163d 3b6f 22bd 9261 cf3a
000000c0: 6c97 b73c daa1 4b3c ea94 b43c 323d 4bbd
000000d0: 3f6b 663c 687c 19bd 0225 f3bc 706c 373d
000000e0: 9dad 8dbb 21e9 28bd 968f 46bd f4b8 54b8
000000f0: a9b1 8fbc d79e 013d 63e3 a53c ab13 07bd
00000100: 5216 89bc e98c 08bc a705 c63c 02ec 643c
00000110: 359a 18bd 3cfa 123d 0758 84bd c43d a73c
00000120: 3382 583d 068f c2bd 65a0 4dbc 44ab 803d
00000130: 78cd 91bc 3581 ad3a b6a1 3e3d 6ee2 9c3d
00000140: ceb6 443d 2722 16bc 7227 c23c df9c 963c
00000150: e5c8 953b 6629 0cbd 65eb 873c adad 843d
00000160: 4e8c 30bd 8a00 87bc a96f 3b3c d31d 1e3d
00000170: 3af1 003d 64d4 f0bc 2574 c6bd 4169 edbd
00000180: 9912 40be 2df9 e7bd d89c e2bd dbc6 8bbd
00000190: 9c4c 25bd 6416 41bd ec49 9a3d 4373 0dbd
000001a0: 05e5 1bbd e77f d8bc 8139 963c 65ea efbc
000001b0: 8669 bcbb 861f b63b e660 ab3c 2f29 e13c
000001c0: cd87 363d c197 dd3c 888d 92bc 7d02 203c
000001d0: 288d d7bc 12ec 90bc f9de 04bc 1070 aa3b
000001e0: 7b14 523d abc6 d23c 5ba3 31bc adea c53b
000001f0: 60aa 91bb 3acc 9dbc bd40 bcb9 212f 49bc
00000200: 26bb 6dbb 6e70 113d 557f a33c 69b3 f63b
00000210: bbf6 ad3c a4c7 05bc 0f39 acbc 7109 79bc
00000220: abba 393c d299 113c c345 6fbb e102 66bc
00000230: 24b8 d9bb cfb3 1e3d 4cf7 15bd 0263 8f39
00000240: bace 47bc fda3 a6bd b4e0 eb3c e490 c9bc
00000250: 074e 023d 2967 aa3b 26c3 ec3b 7241 233c
00000260: f480 bebb 27d5 4f3c 3e7c 04bc e22c cc3c
00000270: 52b5 8f3d daa1 353e e71b bf3d ac5f b33c
00000280: 1e27 f13b f73d ec3c d7d0 c93c 27b9 1b3d
00000290: d920 763d 3766 e43b adc1 af3d 7514 39bd
000002a0: 25d1 e8bb 497d 4ebc e3d6 efb9 6c9f 143c
000002b0: 0e50 213d 0ca7 9ebc 9f6b 38bc 9dc7 0fbd
000002c0: f0d2 b9bc fc7b b43c c5be fb3b 10cc 463c
000002d0: d146 cc3c 817e 33bd 28c3 4b3c f004 edbc
000002e0: 0631 5ebd 865e 8d3b a617 a03c ae85 d5bc
000002f0: b31d 923c 364d 5dbc d234 383b 35b1 d03d
00000300: 7b4e b83d 9f4a 113d 1e10 c93c aa23 523d
00000310: 2454 5fbd 7e76 ccbc acd1 8a3d 509d a83c
00000320: 1cfc 0cbc e90f 033e e859 aebd 4c53 b33d
00000330: 5158 edbb eb80 a23d 1be6 463d 82e8 813d
00000340: 0440 ac3d 4284 14bc 7e80 803c a6e0 c3bd
00000350: b9bf 3d3d df28 083e b3d9 5fbd 1627 4f3d
00000360: 6b89 983c 9b62 4b3e 3ce0 89bd bc6d 073e
00000370: 489d 8e3d 5163 ecbd 0b78 50bd a3c7 93bd
00000380: f1de cebc a08f 58bd 5794 623c 38ae 6f3d
00000390: c179 3a3c 694e 6fbd 2de3 9f3a 5050 4d3d
000003a0: 58bf 13bd c0f7 653d 857d fd3d c2ae e1bb
000003b0: 60fa 043c 7747 643d 0528 b13c 0d76 84bc
000003c0: 4677 82bd 7997 483d 702e d53b 5753 6a3d
000003d0: 8463 a53d 83ad afbc a354 ecbc 8e51 8c3d
000003e0: 182c 873d 61b0 6fbd 4574 f53d 4eb4 5d3d
000003f0: a643 8dbd 7997 bdbb 677c 9b3c bcca 8dbd
0.031585652 -0.008265787 -0.010091613 0.047437586 -0.035044394 0.034893285 -0.040616803 0.006875285
-0.031160401 0.052619044 0.046680063 -0.03960059 0.013724756 0.009837635 0.010379958 0.01726416
-0.04086689 -0.065144144 -0.025121532 0.010877565 -0.0069973515 0.0052856365 -9.1203845e-05 0.022472912
-0.030358242 -0.02446204 -0.016922766 0.015837071 -0.027652448 0.02938477 0.0036522401 0.088338
-0.055019908 -0.046529304 -0.029435908 0.080258146 0.090136096 -0.022969944 0.020656032 0.028857592
-0.01937286 0.029312622 -0.0265401 -0.020121463 0.062782906 0.03671607 -0.03965686 0.0015821925
0.02241107 0.012428725 0.022043664 -0.049618907 0.014063655 -0.03747216 -0.029680733 0.04478115
-0.004323675 -0.041237954 -0.048476778 -5.071699e-05 -0.01754077 0.031645622 0.020250028 -0.03297774
-0.016734276 -0.008334377 0.024172617 0.013972284 -0.03725644 0.035883173 -0.064621024 0.020415194
0.052858543 -0.09499936 -0.012550448 0.06282666 -0.01779817 0.0013237359 0.04654094 0.076603755
0.0480259 -0.009163416 0.02370045 0.018385349 0.0045710676 -0.034219168 0.016591737 0.064784385
-0.043102555 -0.01647975 0.011440196 0.03860266 0.03148005 -0.02939815 -0.096901216 -0.11592341
-0.18757094 -0.113268234 -0.11065072 -0.06825038 -0.040356264 -0.047140494 0.07533631 -0.03453375
-0.038060207 -0.026428176 0.018337967 -0.029286573 -0.005749884 0.005557957 0.020920228 0.027485458
0.044563103 0.027049901 -0.017889753 0.009766218 -0.026312426 -0.017690692 -0.008109801 0.005201347
0.051289063 0.025729498 -0.01084217 0.0060399384 -0.004445359 -0.019262422 -0.00035906388 -0.012279303
-0.003627488 0.035507612 0.019958178 0.0075287116 0.021235814 -0.008165274 -0.021023301 -0.015200005
0.011336009 0.008886771 -0.0036510087 -0.014038772 -0.0066442657 0.038745698 -0.036612794 0.00027348852
-0.012195284 -0.08136747 0.02879367 -0.024605222 0.031812694 0.005200286 0.007225412 0.009964334
-0.0058137123 0.012685097 -0.008086262 0.024923746 0.07017006 0.17737523 0.09331494 0.021896206
0.0073593995 0.02883814 0.024635715 0.038018372 0.06008992 0.006970193 0.085818626 -0.045185525
-0.00710501 -0.0126031125 -0.00045745735 0.009071212 0.039382987 -0.019366764 -0.011256128 -0.035102475
-0.02268359 0.022031777 0.0076826536 0.012133613 0.024936112 -0.043821815 0.012436666 -0.028933018
-0.05424597 0.0043142466 0.019542526 -0.02606472 0.017836427 -0.013507178 0.0028107655 0.101900496
0.08999344 0.035471555 0.024543818 0.051303543 -0.054523602 -0.024958845 0.06778273 0.020582825
-0.008605029 0.12799038 -0.08513242 0.08756122 -0.007243194 0.079347454 0.04855929 0.063431755
0.084106475 -0.009064736 0.01568627 -0.09564333 0.04632542 0.13296841 -0.054650974 0.050574385
0.018620213 0.19861834 -0.067322224 0.13225454 0.06963593 -0.115423806 -0.050895732 -0.07215812
-0.025252791 -0.052871346 0.013829312 0.058515757 0.011381567 -0.058424387 0.0012198441 0.05012542
-0.03607115 0.056144476 0.123774566 -0.006887288 0.008116335 0.055732217 0.021625528 -0.016169572
-0.06370406 0.04897258 0.00650578 0.057208385 0.08075622 -0.021445042 -0.028848952 0.06851493
0.06600207 -0.058517817 0.11985067 0.05412703 -0.068976685 -0.005785879 0.018980218 -0.06923434

down1.maxpool_conv.3.double_conv.1.gamma f4 [1, 11, 1, 1, 1]
00000000: 7548 363f 1d6d 743f 7d4a 523f 1796 803f
00000010: 172f 043f c81f 713f b17f 803f dff8 7b3f
00000020: 03e6 4d3f 92c6 6f3f 5863 663f
0.7120431 0.95478994 0.8214491 1.0045804 0.51634353 0.9418912 1.0038968 0.9842662
0.80429095 0.9366237 0.89995337

down1.maxpool_conv.3.double_conv.1.beta f4 [1, 11, 1, 1, 1]
00000000: 50a5 c73c a9e6 213c 1a59 cb3d 4961 f1bc
00000010: 822d d6bd a7ba 2dbe 31a9 b2bd 7759 e03e
00000020: 5b2b 02be cfe3 1b3f bb4f 243b
0.02437082 0.009881654 0.09929104 -0.029465334 -0.10457899 -0.16965733 -0.08723677 0.43818256
-0.12711851 0.60894483 0.0025071937

down2.maxpool_conv.0.weight f4 [11, 11, 1, 1, 7]
00000000: 953d 03be bea6 e33d 48d9 a5bd 33a7 c33d
00000010: e141 e3bd 0144 473c 843e 493d 8c71 893d
00000020: 5e1c 0abe 3455 e5bd 8d27 91bd 19e0 d63d
00000030: 6cc6 183e a41b 203d 01d5 89bc ff70 b3bc
00000040: 94f5 d5bc 4b04 523e 6f9e be3d e945 a63d
00000050: 71e8 063e e6be 80bd 84a7 7cbe 8adc 51be
00000060: efaa 90be 01c6 0fbe bfaf d93d 4205 923e
00000070: 6dae fbbd de0d b3bc f396 6e3d 1ce6 5b3e
00000080: 9c29 d93d 920e bdbc 3e52 fb3d 993e cf3d
00000090: 0a85 223b cec1 373c 6cd1 62bd 5e90 78be
000000a0: c92b cbbd fde5 7cbd 8cfd babd 54c1 53be
000000b0: 4743 f63c 2dec 8d3d de04 303e a834 3c3e
000000c0: d1d5 283e 06d5 413e 8c48 5d3d c363 4fbc
000000d0: f990 70be b425 4bbe b8b0 f2bd 6f47 60bd
000000e0: 9dca 19bd 21d6 4a3e f641 ebbc 5eed 833d
000000f0: 7571 86bd ff15 1ebe 978c d73d 3855 343e
00000100: 46e9 b33d 816a c93d 3d13 95bd 35e9 b8bd
00000110: 4e38 753c 5d14 503c fb51 903c 8253 6b3d
00000120: 68d3 5f3d c233 a33c d3e7 bcbd 37a8 27bd
00000130: ece5 06bd a2a7 a8bd 9718 ddbd f033 233c
00000140: 1176 d53d 958b babd d8f7 d83d 9d76 56bd
00000150: b3c1 babc 0dfd ecbd 246c 463d b93b 2fbe
00000160: 36f2 58be 4525 dbbc 8732 df3d 5c58 613d
00000170: 9c0f 563e c2b7 b03d e34c fcbb fbdc d33d
00000180: 5efe 0b3e ec99 233e 0133 5b3e f837 dabd
00000190: 2570 15be 9dd9 e53d d4e6 23bb e4ca e63d
000001a0: b32d 393d ebf8 0e3d 6fd1 8ebd 05e3 21be
000001b0: 1df1 803d 0a6b 7cbd d259 f53d 7b8f 063e
000001c0: 7d48 58bc 307e 3b3e 223c d33d 28d4 103e
000001d0: 20b6 4c3e efd2 e1bd 0e4f a7bd 4c61 3a3e
000001e0: b5b7 1cbc 9685 30be 1b47 4bbd 157c afbd
000001f0: bb94 7c3e 058f 6e3e 5de5 66be fd18 d53d
00000200: e53e 54be 947c 8fbd f820 813d 8cb4 d6bd
00000210: 0c59 f7bb 6b95 623c 9b85 88bd 9f9e c83d
00000220: 6be6 c2bd 028b 193d 874e f2bd f6bb dbbd
00000230: d537 573e 8be4 923d 9b8e a03c 522a 35bc
00000240: 68af e9bc 7e4e e338 a51c 9e3d 7229 0e3e
00000250: cf53 373e b181 293e 0cb8 26be 64b5 27be
00000260: 6bca 1ebd 96bf f0bd c6c2 85bc dc34 a13c
00000270: b5dc c0bc 6545 e63d 02e4 113e 06d9 4c3e
00000280: d304 953d c9e2 f5bc e95c 0a3e 10f2 0f3e
00000290: cc94 01be 24b1 153c 8250 30be 8d9e 2bbe
000002a0: e256 7abe 4e7d ec3b 6968 70be 8053 373d
000002b0: 0412 973d 17d8 79bd 2590 023e fc91 c2bd
000002c0: de8d f33d e8dd 573d 4d39 b5bd 7fd5 9b3c
000002d0: 89b7 b6bc 382b 8dbe 12d2 58bb 21b3 dbbd
000002e0: 3e35 59be bd79 1cbe 6598 5abd d63f a73d
000002f0: 94e9 373e 496d cebd 83a4 673d f5a7 0cbe
00000300: bd9f 043d a0f5 883c 70eb e4bd c943 0dbe
00000310: 8f9c 3b3c 03a1 533e ed11 663d aa84 3a3e
00000320: b7cf 2a3e d52a 183e 995c 063e ef9e 4b3e
00000330: 3860 c53d 65cd 343e 0a58 81bc 8851 00be
00000340: f6f3 55bb 6f11 13be ef98 cdbd 87d8 d93b
00000350: 7fc1 06bd 4017 1abe 1a83 90bd 0864 98bc
00000360: 3019 473e 270b c43b 78e2 7d3d ff91 373e
00000370: c918 483e 46ad 8e3d a738 063e debd 0bbe
00000380: 4354 bdbd ce58 3ebe 58f4 35be 162a ae3d
00000390: d886 5ebe 2b1a cabd 2912 58bd 2f77 3d3d
000003a0: 2a9a 96bc d954 8abd ec4d 63bd a4ee 153e
000003b0: 073c b13d 59d1 9abd 6234 3f3d 6ae5 e53b
000003c0: 5593 f4bd 5c2a 8f3d 50d9 223d 7228 6b3e
000003d0: aa45 4f3e 0855 283c 54bc 54be ebc8 af3c
000003e0: 2ea8 86be ea7d 39bd 5ca4 edbd c90b 88be
000003f0: 3b6d 493e 4641 9d3d d52b 35be b68e ee3d
-0.1281646 0.11115788 -0.08098084 0.09553375 -0.1109655 0.0121622095 0.049131885 0.067111105
-0.13487384 -0.11197892 -0.07087622 0.10491962 0.14919442 0.03908886 -0.016825201 -0.021904467
-0.026118077 0.2050945 0.093075626 0.08118803 0.13174607 -0.06286411 -0.24673277 -0.20494285
-0.28255412 -0.14040376 0.10629224 0.28519636 -0.122891285 -0.021857198 0.058249425 0.21474499
0.106036395 -0.023078237 0.12271546 0.101193614 0.0024798536 0.01121564 -0.0553755 -0.24273822
-0.09920461 -0.06174277 -0.091303915 -0.20679218 0.030061377 0.069298126 0.17189357 0.18379462
0.16487814 0.18928918 0.054024264 -0.012658062 -0.23492803 -0.19838601 -0.11850113 -0.054755624
-0.037546743 0.19808246 -0.028717976 0.064417586 -0.06564609 -0.15438078 0.10524862 0.17610633
0.08784728 0.09834767 -0.0727906 -0.09028856 0.014967037 0.0127001675 0.017617216 0.057452686
0.054644972 0.019922141 -0.092239045 -0.040931907 -0.032934114 -0.082350984 -0.10795706 0.009961113
0.1042291 -0.091086544 0.105941474 -0.052359212 -0.022797441 -0.11571703 0.048442975 -0.17112626
-0.21186146 -0.02675117 0.10898309 0.055015907 0.20904392 0.08628799 -0.0076995953 0.10344883
0.13671252 0.15976685 0.21406175 -0.106552064 -0.14593561 0.11223147 -0.002500941 0.11269167
0.045209598 0.034905355 -0.0697354 -0.15809257 0.06295989 -0.061625518 0.119800225 0.13140671
-0.013200876 0.18309855 0.10314204 0.14143431 0.1999135 -0.110265605 -0.08169375 0.18201178
-0.009565284 -0.17238459 -0.04962836 -0.08568589 0.24666111 0.23296745 -0.22548433 0.10405157
-0.20727117 -0.07006183 0.063051164 -0.10483655 -0.007548457 0.013829569 -0.06666108 0.097958796
-0.09516605 0.037486084 -0.11831384 -0.1072921 0.21017392 0.07172497 0.01959925 -0.011057453
-0.028526023 0.00010838824 0.07720307 0.13882998 0.17903064 0.1655338 -0.16281146 -0.16377789
-0.03876726 -0.11755292 -0.016328227 0.019678526 -0.023542741 0.11243705 0.14247134 0.20004663
0.07276311 -0.030015366 0.13512005 0.14057183 -0.12654418 0.009136472 -0.17218211 -0.16759701
-0.24447206 0.007217086 -0.2347733 0.044757366 0.07376483 -0.060997095 0.127503 -0.095005006
0.118922934 0.05270186 -0.0884882 0.019022701 -0.022304313 -0.27572036 -0.0033084196 -0.107275255
-0.21211717 -0.15280814 -0.05336799 0.081664726 0.17960197 -0.10079438 0.056553375 -0.13735946
0.0323789 0.016718686 -0.11177719 -0.13795389 0.011450901 0.2066689 0.05616944 0.1821467
0.166808 0.14860089 0.1312126 0.19884847 0.09637493 0.17656477 -0.01578905 -0.12531102
-0.0032646633 -0.14362119 -0.100389354 0.0066481265 -0.032899376 -0.15047932 -0.07056256 -0.018602386
0.19443202 0.005982775 0.061983556 0.17926787 0.19540705 0.06966643 0.13107549 -0.13646647
-0.09244587 -0.18588564 -0.17768991 0.08504121 -0.21731126 -0.098682724 -0.052751694 0.04625624
-0.018384058 -0.06754465 -0.055494234 0.14641815 0.086540274 -0.07559461 0.046680816 0.0070158737
-0.11942164 0.06990501 0.039758027 0.22964647 0.20241418 0.010274179 -0.20774966 0.02145811
-0.26300186 -0.045286097 -0.11603615 -0.2657149 0.19670574 0.076784655 -0.17692502 0.11648314

down2.maxpool_conv.1.gamma f4 [1, 11, 1, 1, 1]
00000000: 7c0e 853f 541d 5a3f fe99 863f 113e 8f3f
00000010: f61a 8c3f 7768 733f 1109 783f 7587 6b3f
00000020: ae6f 843f 642b 853f 404e 723f
1.0395045 0.85201 1.0515745 1.1190816 1.0945728 0.95081276 0.96888834 0.92003566
1.0346582 1.0403867 0.9465065

down2.maxpool_conv.1.beta f4 [1, 11, 1, 1, 1]
00000000: 21c3 633e 75c5 2e3e 5809 01bd 421d a33d
00000010: 88db f73d 7f27 c03d 655f 48bb c636 263d
00000020: b803 743d 99a5 adbd 6b77 79bd
0.22242405 0.17067511 -0.03150305 0.07964565 0.12102419 0.09382533 -0.0030574438 0.04057958
0.05957386 -0.08478851 -0.0609049

down2.maxpool_conv.3.double_conv.0.weight f4 [16, 11, 3, 3, 7]
00000000: ae4f 87bc 378c 183c 059a a83c 9446 503c
00000010: c2c0 813c d2f4 8cbc ec42 00ba c0a6 9cbc
00000020: 3d12 ff3c 3046 763c 7a66 ea3a 3960 37bc
00000030: 5512 a83c 7af7 00bd 647f 89bc ad1f fc3c
00000040: 4f53 653c 29ff 2d3d 4e36 1dbd 102b 103d
00000050: 564e f6bc f718 afbc cb07 b7bc 2a08 0dbc
00000060: 8540 b1b9 fa4e 2ebd e5a3 a73c 1fa7 9e3c
00000070: 30a4 12be 0e2b c2bd 7121 e63c cfce ad3d
00000080: 3eae 2c3d 059f 633e 31fa 2a3e b8e7 a5bb
00000090: 34a5 5f3b c08e cd3c 8127 ddbc 3bee 683c
000000a0: 4ef6 11bd a2ec 6d3c ba91 c4bb 01c8 373c
000000b0: ca20 a53c f0e3 bf3c 5ed6 b8bc 4bf9 463c
000000c0: f274 d3bc 6233 46bd d66b 513d 082a 00bb
000000d0: df92 0bbd c861 4d3d 3b39 edbb e1db 043d
000000e0: 5279 3fbb 9fe5 28bd 81be 12bc 4ca8 b3bb
000000f0: 8e70 e13c 4616 ea3c d2ab 293c a055 96bb
00000100: 7b4f f23c 1c91 22bc f9ee 9abc 2f2a b53c
00000110: 892d 9dbc 63ae 99bc 2e97 d53c 9989 f83b
00000120: 78d7 47bd 5951 893c 50ea 3dbd 0422 bd3b
00000130: 71ec cd3c b712 9ebc 1bfb 2abc 95d1 ecbb
00000140: 73a6 643c 31a6 77bc 66ff 50bc 10cf 3abc
00000150: e383 0abb 2909 dc3b 73ac b43c ce52 263d
00000160: 7d52 4dbc c4be 83bc a407 c53c 80d2 ecbd
00000170: 088a abbd 9ea4 a73b 099c 49bd d8d9 113c
00000180: 4750 833d 2336 e13d 21c1 dc3b 1fb6 96bc
00000190: c3d3 4a3d 3695 e2bc 5c6a 17ba e58a 053c
000001a0: 74d8 58bb 2625 c8bc a616 d23b ea4d 5a3c
000001b0: c43a 7ebd 0a2f 8d3c 9cec dfbc 59d8 d73c
000001c0: 1fbe 373d 941d c6bc 56fe c63c 39c0 59ba
000001d0: 218e d73c c13b 53bc 9cd7 07bd adcd f53c
000001e0: 4ccc e83c 78b6 bfbb a991 01bd 646e a83c
000001f0: 79de d2bc a13f bcbc fd2c 1c3c 75db 65bc
00000200: 7a1b 5e3c ae49 a6bc 08c5 963c a535 3e3c
00000210: 4fef 2c3c 948f 643b 711f 6a3c 7b73 fc3c
00000220: 75f1 e7bc 938e febc 1452 cbbc 548e 353c
00000230: d6d9 cbbb 5dae 98bc 54ef 813c 9aa5 0abd
00000240: ab85 68bb bdd6 a4b9 a3d4 bd3c 414c 8938
00000250: bc0a a7bb 984f 603c abb8 ba3c 9079 a33c
00000260: b419 5037 02bb 45bd 30cc 193e ee1b 903d
00000270: 6d10 9b3d 8341 d13d 5f33 923d 2953 babd
00000280: dc92 21be 8f03 b8bc 8f35 93bb 31e2 38bc
00000290: d280 e5bc 5263 f73b 20fb dabb 24db 043d
000002a0: 2bba 05bb 594a ba3b 5f05 adbd 1815 9bbc
000002b0: 5032 cbbc 63fc 443d d719 f5ba ddd1 853c
000002c0: 6e94 47bd 2736 0fbd 1dab 0ebb 1778 4e3b
000002d0: 0295 08bb 8956 a03c 2cc3 5dbc e1d3 783c
000002e0: f48f dfbc 523c 0b3c 3bac 52bc fd73 63bb
000002f0: 9c1a caba 9626 1d3c a455 a1bd 5441 d13c
00000300: 77da b7bc c8c8 a83c 0535 ecbb bea7 14bc
00000310: 09cc dc3c 6ac3 8dbd 4512 21bb e7a3 c63c
00000320: 7851 00bc 334f 6ebb c66b e53c 2c6c 2fbb
00000330: c40a 0cbd 1553 713d a5a3 9cbc 7775 773b
00000340: 2759 4cbb 6268 3b3c 03c3 ed3c 3eee 973d
00000350: dfc3 513c 2af5 d13c 3b7b d23c 59a6 ae3b
00000360: 9041 81bd f181 613e 1763 023e 5318 193e
00000370: 89f5 553e c694 ff3b ed85 00bc b48a 8a3d
00000380: 8d27 85bb d47c 403d 3f1c 5a3c a185 42bd
00000390: dcf7 823d 088f 0fbd 698b 32bd 9361 e4bb
000003a0: 95c0 70bb 2c55 ae3c adff c0bb f11c 193d
000003b0: 1902 41bd 592b 12bb 29b1 6f3d 8eac 953d
000003c0: 2746 ae3d 0793 06bd 0168 b1bd 7ec3 563d
000003d0: ebbd e6bc d9bb c5bc 97bb 283d e42d a43c
000003e0: e7ab 1ebd be70 23bd d644 8abc 8628 fabc
000003f0: 3b8e 713c 7b5d 01bd c664 84bb 7b30 b0bb
-0.016517486 0.009310774 0.020581255 0.01271214 0.015838984 -0.017206583 -0.00048927846 -0.019122481
0.031136626 0.015031382 0.0017883324 -0.011192375 0.020516554 -0.031486012 -0.016784377 0.030776823
0.013996913 0.042479668 -0.038381867 0.035197318 -0.03006665 -0.021374209 -0.022342583 -0.0086079035
-0.00033808142 -0.042555787 0.020463893 0.019366799 -0.14320445 -0.09480868 0.028092118 0.08486711
0.042158358 0.2222863 0.16697003 -0.0050630234 0.0034125568 0.025092483 -0.026996376 0.014216955
-0.035635285 0.01452175 -0.0059988173 0.011217118 0.020157237 0.023424119 -0.022563156 0.012144397
-0.0258126 -0.048388846 0.05112823 -0.0019556303 -0.034075614 0.05014208 -0.0072394884 0.032436255
-0.00292166 -0.04123461 -0.0089565525 -0.005482709 0.02751949 0.028575074 0.010355907 -0.004587844
0.029578915 -0.009922292 -0.01891278 0.022114841 -0.019186752 -0.018759912 0.026073065 0.0075847623
-0.04878947 0.016762422 -0.046366036 0.0057718772 0.025137158 -0.019296033 -0.010435845 -0.0072271326
0.0139557 -0.015115307 -0.012756204 -0.011401907 -0.002113574 0.006714959 0.022054886 0.040606312
-0.012531874 -0.016082175 0.024051495 -0.11563587 -0.08375937 0.0051160594 -0.049221072 0.008902036
0.06411796 0.10996654 0.00673689 -0.018397389 0.049518358 -0.02765904 -0.00057760417 0.008150791
-0.0033088 -0.024431776 0.0064113913 0.01332424 -0.062067762 0.017234344 -0.027334504 0.02634828
0.044859048 -0.024184026 0.024291199 -0.00083065365 0.02631289 -0.012892664 -0.033164605 0.0300053
0.028417729 -0.0058506094 -0.031633053 0.02056045 -0.025740849 -0.02297956 0.00953221 -0.014029373
0.013556356 -0.020298805 0.018404499 0.01160947 0.0105551025 0.0034875618 0.014289723 0.030816784
-0.028313378 -0.031073844 -0.024819411 0.011081297 -0.0062210364 -0.01863783 0.01586119 -0.033849336
-0.0035480063 -0.0003144051 0.023172682 6.5468725e-05 -0.005097715 0.013690852 0.022793135 0.019955426
1.2403751e-05 -0.048274048 0.15019298 0.07036577 0.07571492 0.102175735 0.071387045 -0.09097893
-0.15778679 -0.022462634 -0.0044924687 -0.011284397 -0.028015528 0.0075496817 -0.0066827685 0.03243555
-0.0020405154 0.0056851325 -0.0844829 -0.018930957 -0.024804264 0.048092257 -0.0018699717 0.016335422
-0.048725538 -0.034963753 -0.0021769472 0.0031504685 -0.0020840769 0.019572513 -0.013535302 0.015187235
-0.027290322 0.008498268 -0.012858446 -0.0034706586 -0.0015419307 0.009591719 -0.07877663 0.025543846
-0.02244304 0.020603552 -0.007208469 -0.009073196 0.02695276 -0.06922038 -0.002457754 0.024248077
-0.007831924 -0.0036363124 0.028005492 -0.0026767356 -0.034189954 0.058917124 -0.019121 0.0037759223
-0.0031181069 0.011438461 0.029023653 0.07418488 0.012803047 0.025629599 0.025693526 0.005329889
-0.06311333 0.22022225 0.12733112 0.14950685 0.20894445 0.0077997176 -0.00784443 0.06764737
-0.0040635527 0.046994045 0.013312398 -0.04749072 0.06394932 -0.035048515 -0.043589983 -0.0069696396
-0.0036735882 0.021280847 -0.005889854 0.037381116 -0.04712114 -0.002230367 0.058518562 0.07308303
0.08509474 -0.03285506 -0.08662415 0.05243253 -0.028166732 -0.024137424 0.041194525 0.020041414
-0.038738158 -0.03990244 -0.016878527 -0.030536901 0.014743383 -0.03158329 -0.0040403334 -0.005376873

down2.maxpool_conv.3.double_conv.1.gamma f4 [1, 16, 1, 1, 1]
00000000: b564 8a3f 3639 a93f f77e 5b3f 82ee 663f
00000010: db2d 583f 9138 863f 06f8 543f 453b 4d3f
00000020: 5df2 683f 694d 6a3f c39b 553f 8ad3 7c3f
00000030: a331 5a3f 6575 413f e8df 763f 98c4 7f3f
1.0811983 1.3220584 0.8574061 0.90207684 0.8444497 1.0486013 0.83190954 0.80168563
0.90994817 0.9152437 0.834408 0.98760283 0.8523199 0.75569755 0.96435404 0.99909353

down2.maxpool_conv.3.double_conv.1.beta f4 [1, 16, 1, 1, 1]
00000000: aa45 a1bd 290c 8abe e075 b8bd d864 8c3d
00000010: 89f6 bfbd 5f6f de3d ea23 15be 5b38 e9bd
00000020: a3e1 1dbd 95bf 50bd f269 03be 4c55 583c
00000030: 6fe6 cebd 0fb3 efbb 46a2 efbd cb1d 08be
-0.078746155 -0.26962402 -0.09006858 0.06855172 -0.09373195 0.10861086 -0.14564481 -0.11387702
-0.038545262 -0.050963957 -0.12833384 0.01320393 -0.101025455 -0.0073150466 -0.11700873 -0.13292615

down3.maxpool_conv.0.weight f4 [16, 16, 1, 1, 7]
00000000: 8729 b53c a91b dcbd 9b16 1cbe 2b94 b0bd
00000010: 6bd6 2bbe 705b 0fbe c740 bebc 8bcb 82bd
00000020: 2582 08be 4334 70bc 0c10 44be d3eb 69bd
00000030: aefb 2cbe d2d9 b9bd bb62 c9bd efac 62bc
00000040: d7b1 f23d 1324 debd 02ab 2cbe a45b 25bd
00000050: 2d3c 90bd 0a2a 36bd 719c cfbd 2822 163d
00000060: 9c23 b03d a612 adbd 632b 183d 08d8 3d3c
00000070: c239 5dbd ecfc bebd cc76 ad3c 5632 02be
00000080: 9114 33bd 2782 133d 1581 973d e514 37bd
00000090: ce09 e13b fa78 063e 9a9a 123e 8516 893d
000000a0: 1b6b 843d 6919 133b c908 43be 4c63 82bc
000000b0: c7bb 05be 9901 77be e00c 95be 86a1 223c
000000c0: 42c3 5ebe f317 5e3d 8193 313b 509d 81bd
000000d0: 236b 903d a61b 6bbe 0e44 4ebe a528 6dbd
000000e0: 2eaa 04be 7a35 143d b59b b7bd 9c4e 0abd
000000f0: 8907 22bd 0b4a 063d 3c79 663b 4823 b9bd
00000100: 13c8 2d3d e9d5 813d c77b 86bd e0e4 12be
00000110: 22f6 243e 6048 093e 4e93 18bb e496 08be
00000120: 1981 283c 689c 5bbe d3e8 27be a39e 98bd
00000130: d125 35be 64eb 9cbd 8c7c 19bb a740 10bd
00000140: a26d 15be 9f92 303e e747 233d 4228 3bbd
00000150: 9451 89bd 9cbf 3ebe da19 6bbe 1acd 12be
00000160: bd2a 23be b353 8abe 48d8 53be 4347 bcbb
00000170: 4d99 21bd 1bd0 c43d c4d3 aa3d d86b 31bd
00000180: 4f1b 9f3c cabb 65bd af9c fd3d 4436 fb3d
00000190: ef34 4d3d 990f 21bd 22ae 3e3b 57c5 853d
000001a0: a723 91bd 3cd4 5d3d 382f a53c 846e 64bd
000001b0: 9691 dcbd 7a77 0bbd f0b2 0d3c 85cb 843d
000001c0: 5e73 d7bd fd44 bdbc 5aa3 1dbc 62f6 2a3d
000001d0: bcef 163e 38b7 823d ca78 113e 872f dcbd
000001e0: 6c14 783c 2696 003e cc50 143e a709 433e
000001f0: 95f4 183e 5bbf b73d 97fe 303d b114 cf3d
00000200: 6c8c 23bd bf6e a03d 0a82 09be f4be a2bc
00000210: 3531 213e 58c4 c03c 06ad e0bd 7317 553d
00000220: 28cc 583d d5fb 4cbc c3b4 2dbd 580f 02be
00000230: 1b7f bcbd a050 0d3d e9ff 30be c4da 233b
00000240: bdb4 09bd c4ed a5bd 29d9 0fbd 78af 27be
00000250: 4813 163d ad3a 27be ace9 a73d 05b7 03bd
00000260: 95a9 d13c f136 15be 3a6c 9cba efab 4bbd
00000270: 5a5b 5abd a63d e4bd 6cbc 013e b1b8 92bd
00000280: 3d00 6d3c 2150 de3d b03b 163e e93d d3bd
00000290: 361a afbb a914 a83d d2ba 743c b437 bf3c
000002a0: bb42 2abd e38d 1b3e f279 0ebc 4d99 29bd
000002b0: b0ce 82bd 2f87 07be dd54 1dbd d2c2 c73d
000002c0: c768 0abe c6ee 233c 310b c73d 5bd4 91bd
000002d0: 257c bb3c 410d abbd d394 623c 6b7c 36bd
000002e0: 35d2 51bd ce1c dc39 f92a 58bd f13b eabc
000002f0: 20d8 c63d 7ae2 9d3d 0f73 373d 540c bbbc
00000300: 3e35 d23d 2a1c de3d b874 6fbd 2c0e 093e
00000310: e654 7ebd d01e 75bd 9f01 5f3d 5e2f 583d
00000320: e774 b83d 0aa7 54bd ed8e c83d d01e dab9
00000330: d8ea 9c3d 0051 f23d 715b ecbd 6197 3f3e
00000340: 084d f13d 7cbf 2a3e 2c18 80bd 4330 0f3e
00000350: 4a23 273c 5a31 be3d 60ef 023d 3a80 f83d
00000360: 605a 463e 192a 263e 3553 0abd 9d36 18be
00000370: faed 993d 1a33 01be d50f e4bd b048 a03d
00000380: b8db 89bd 81ba 933c d31b 753d 4a75 ceb9
00000390: 7e3a 4b3e a893 b03d 85c0 3c3e decd 863d
000003a0: 0ffd 083e 1012 f33d bf22 5f3e c429 d53d
000003b0: eaa4 623d 504d ec3d 9a1f 5b3d cbf2 6f3d
000003c0: 0c14 f63c 108f bbbd 0093 af3b 13ac 1b3d
000003d0: f404 d33d 4cee 8dbc 55aa 52be 4088 06be
000003e0: 494e c8bc 4004 69bb 2e51 b33d 90b6 c5bd
000003f0: fa46 7dbc 2c01 393b cd4c eb3c fcee 6bbb
0.022114528 -0.10747463 -0.15242998 -0.08622011 -0.16781013 -0.13999724 -0.023224248 -0.06386479
-0.13330896 -0.014660898 -0.19146746 -0.057109665 -0.16892883 -0.09074749 -0.098332845 -0.013835176
0.118503265 -0.10846724 -0.1686211 -0.0403706 -0.070427276 -0.044473685 -0.10137261 0.036653668
0.08600542 -0.084508225 0.03715075 0.01158715 -0.05401016 -0.09325585 0.02117481 -0.12714514
-0.043720786 0.036012795 0.07397667 -0.04469766 0.006867624 0.13132086 0.14316788 0.066937484
0.06465741 0.0022445566 -0.1904632 -0.015916489 -0.13059913 -0.24121703 -0.29111385 0.0099262055
-0.21754172 0.05422206 0.0027095976 -0.06328833 0.07051685 -0.22959766 -0.20143148 -0.05790009
-0.12955543 0.03618381 -0.08965246 -0.033766374 -0.039557967 0.032785457 0.0035167476 -0.090399325
0.042427134 0.06339628 -0.065665774 -0.14345121 0.16109517 0.13406515 -0.002328116 -0.1333881
0.0102846855 -0.21446383 -0.16397409 -0.074521326 -0.17690207 -0.07662085 -0.0023420183 -0.035217907
-0.14592603 0.17243432 0.039863493 -0.04569269 -0.06705013 -0.1862778 -0.2295908 -0.14336053
-0.15934272 -0.27016982 -0.20687973 -0.0057457997 -0.03945284 0.096100055 0.08341172 -0.04331574
0.019422201 -0.056087293 0.12383401 0.1226621 0.05009931 -0.039321516 0.002909549 0.0653178
-0.07086878 0.05415748 0.020164117 -0.05576946 -0.10769956 -0.03404949 0.008648619 0.06484131
-0.105200514 -0.023104185 -0.009621466 0.041738875 0.14739889 0.063826025 0.14206234 -0.107512526
0.015141588 0.12557277 0.14483947 0.19046651 0.1493705 0.08972045 0.043211546 0.101113684
-0.03992884 0.07833623 -0.13428512 -0.019866444 0.15741427 0.023531124 -0.109705016 0.052024316
0.052929074 -0.012511213 -0.042408716 -0.12701166 -0.09203931 0.034500718 -0.17285122 0.002500222
-0.03361963 -0.08101991 -0.03511921 -0.1637553 0.03663948 -0.16330977 0.08198866 -0.032156963
0.025593558 -0.1457174 -0.001193411 -0.049724516 -0.053309776 -0.11144571 0.12669533 -0.07164133
0.014465389 0.10855127 0.14671206 -0.10314543 -0.0053437008 0.082070656 0.01493712 0.023341991
-0.041567545 0.15190844 -0.008696066 -0.041405965 -0.06387079 -0.13235162 -0.03841101 0.09753956
-0.13516532 0.0100056585 0.097189315 -0.07120582 0.022886345 -0.08352137 0.013829428 -0.044552248
-0.05122586 0.0004198313 -0.052775357 -0.028593035 0.09709191 0.077092126 0.044787463 -0.022833027
0.102640614 0.108452156 -0.05846092 0.13384312 -0.062092684 -0.05984384 0.054444905 0.052779548
0.09006672 -0.051917113 0.09792886 -0.00041603157 0.076619804 0.11831856 -0.115408786 0.1871009
0.11782271 0.16674608 -0.062546104 0.13983254 0.010201285 0.09286757 0.031966567 0.12133832
0.19370413 0.16226996 -0.03377076 -0.14864583 0.075160936 -0.1261715 -0.11135832 0.07826364
-0.06731361 0.018033268 0.05984099 -0.0003937877 0.19846532 0.08621913 0.18432815 0.06582235
0.13377784 0.118686795 0.21790598 0.10408357 0.055333056 0.11538184 0.053496934 0.058581155
0.030038856 -0.091581464 0.0053581 0.0380059 0.10303679 -0.017325543 -0.20572789 -0.13137913
-0.024451392 -0.0035555512 0.08755718 -0.09653962 -0.015458817 0.0028229458 0.028723145 -0.00360006

down3.maxpool_conv.1.gamma f4 [1, 16, 1, 1, 1]
00000000: 4e06 843f 8e60 813f cbed 853f 0a02 783f
00000010: fbac 793f efc7 813f b01b 813f 4152 863f
00000020: 4bf9 8d3f 90c4 833f 44c4 763f 42f2 803f
00000030: 6bd6 7b3f e52a 5c3f be99 6a3f ca60 803f
1.0314424 1.0107591 1.0463194 0.9687811 0.9752957 1.013914 1.0086575 1.0493852
1.1091703 1.0294361 0.9639323 1.0073931 0.9837405 0.8600295 0.9164084 1.0029538

down3.maxpool_conv.1.beta f4 [1, 16, 1, 1, 1]
00000000: 0c1e f53c 0ab9 edbd 883e a33d 12cb 9dbd
00000010: 1e4d 88bd 54b6 49bc 596c 73bd cb66 1b3d
00000020: a1b4 a83d b492 d6bc d8b4 d4bd c155 603c
00000030: 26a6 b6bd 6d70 53be b893 0fbe 382e 0a3c
0.029921554 -0.11607559 0.07970911 -0.07704748 -0.06655334 -0.012311537 -0.0594295 0.037939828
0.08237577 -0.026193 -0.10386056 0.01369232 -0.08918409 -0.20648356 -0.14021194 0.008433871
